{
     "name": "stdout",
     "output_type": "stream",
     "text": [
      "_________________________________________________________________\n",
      "Layer (type)                 Output Shape              Param #   \n",
      "=================================================================\n",
      "conv2d_1 (Conv2D)            (None, 256, 256, 64)      1792      \n",
      "_________________________________________________________________\n",
      "batch_normalization_1 (Batch (None, 256, 256, 64)      256       \n",
      "_________________________________________________________________\n",
      "activation_1 (Activation)    (None, 256, 256, 64)      0         \n",
      "_________________________________________________________________\n",
      "conv2d_2 (Conv2D)            (None, 256, 256, 64)      36928     \n",
      "_________________________________________________________________\n",
      "batch_normalization_2 (Batch (None, 256, 256, 64)      256       \n",
      "_________________________________________________________________\n",
      "activation_2 (Activation)    (None, 256, 256, 64)      0         \n",
      "_________________________________________________________________\n",
      "max_pooling2d_1 (MaxPooling2 (None, 128, 128, 64)      0         \n",
      "_________________________________________________________________\n",
      "conv2d_3 (Conv2D)            (None, 128, 128, 128)     73856     \n",
      "_________________________________________________________________\n",
      "batch_normalization_3 (Batch (None, 128, 128, 128)     512       \n",
      "_________________________________________________________________\n",
      "activation_3 (Activation)    (None, 128, 128, 128)     0         \n",
      "_________________________________________________________________\n",
      "conv2d_4 (Conv2D)            (None, 128, 128, 128)     147584    \n",
      "_________________________________________________________________\n",
      "batch_normalization_4 (Batch (None, 128, 128, 128)     512       \n",
      "_________________________________________________________________\n",
      "activation_4 (Activation)    (None, 128, 128, 128)     0         \n",
      "_________________________________________________________________\n",
      "max_pooling2d_2 (MaxPooling2 (None, 64, 64, 128)       0         \n",
      "_________________________________________________________________\n",
      "conv2d_5 (Conv2D)            (None, 64, 64, 256)       295168    \n",
      "_________________________________________________________________\n",
      "batch_normalization_5 (Batch (None, 64, 64, 256)       1024      \n",
      "_________________________________________________________________\n",
      "activation_5 (Activation)    (None, 64, 64, 256)       0         \n",
      "_________________________________________________________________\n",
      "conv2d_6 (Conv2D)            (None, 64, 64, 256)       590080    \n",
      "_________________________________________________________________\n",
      "batch_normalization_6 (Batch (None, 64, 64, 256)       1024      \n",
      "_________________________________________________________________\n",
      "activation_6 (Activation)    (None, 64, 64, 256)       0         \n",
      "_________________________________________________________________\n",
      "conv2d_7 (Conv2D)            (None, 64, 64, 256)       590080    \n",
      "_________________________________________________________________\n",
      "batch_normalization_7 (Batch (None, 64, 64, 256)       1024      \n",
      "_________________________________________________________________\n",
      "activation_7 (Activation)    (None, 64, 64, 256)       0         \n",
      "_________________________________________________________________\n",
      "max_pooling2d_3 (MaxPooling2 (None, 32, 32, 256)       0         \n",
      "_________________________________________________________________\n",
      "conv2d_8 (Conv2D)            (None, 32, 32, 512)       1180160   \n",
      "_________________________________________________________________\n",
      "batch_normalization_8 (Batch (None, 32, 32, 512)       2048      \n",
      "_________________________________________________________________\n",
      "activation_8 (Activation)    (None, 32, 32, 512)       0         \n",
      "_________________________________________________________________\n",
      "conv2d_9 (Conv2D)            (None, 32, 32, 512)       2359808   \n",
      "_________________________________________________________________\n",
      "batch_normalization_9 (Batch (None, 32, 32, 512)       2048      \n",
      "_________________________________________________________________\n",
      "activation_9 (Activation)    (None, 32, 32, 512)       0         \n",
      "_________________________________________________________________\n",
      "conv2d_10 (Conv2D)           (None, 32, 32, 512)       2359808   \n",
      "_________________________________________________________________\n",
      "batch_normalization_10 (Batc (None, 32, 32, 512)       2048      \n",
      "_________________________________________________________________\n",
      "activation_10 (Activation)   (None, 32, 32, 512)       0         \n",
      "_________________________________________________________________\n",
      "max_pooling2d_4 (MaxPooling2 (None, 16, 16, 512)       0         \n",
      "_________________________________________________________________\n",
      "conv2d_11 (Conv2D)           (None, 16, 16, 512)       2359808   \n",
      "_________________________________________________________________\n",
      "batch_normalization_11 (Batc (None, 16, 16, 512)       2048      \n",
      "_________________________________________________________________\n",
      "activation_11 (Activation)   (None, 16, 16, 512)       0         \n",
      "_________________________________________________________________\n",
      "conv2d_12 (Conv2D)           (None, 16, 16, 512)       2359808   \n",
      "_________________________________________________________________\n",
      "batch_normalization_12 (Batc (None, 16, 16, 512)       2048      \n",
      "_________________________________________________________________\n",
      "activation_12 (Activation)   (None, 16, 16, 512)       0         \n",
      "_________________________________________________________________\n",
      "conv2d_13 (Conv2D)           (None, 16, 16, 512)       2359808   \n",
      "_________________________________________________________________\n",
      "batch_normalization_13 (Batc (None, 16, 16, 512)       2048      \n",
      "_________________________________________________________________\n",
      "activation_13 (Activation)   (None, 16, 16, 512)       0         \n",
      "_________________________________________________________________\n",
      "max_pooling2d_5 (MaxPooling2 (None, 8, 8, 512)         0         \n",
      "_________________________________________________________________\n",
      "up_sampling2d_1 (UpSampling2 (None, 16, 16, 512)       0         \n",
      "_________________________________________________________________\n",
      "conv2d_14 (Conv2D)           (None, 16, 16, 512)       2359808   \n",
      "_________________________________________________________________\n",
      "batch_normalization_14 (Batc (None, 16, 16, 512)       2048      \n",
      "_________________________________________________________________\n",
      "activation_14 (Activation)   (None, 16, 16, 512)       0         \n",
      "_________________________________________________________________\n",
      "conv2d_15 (Conv2D)           (None, 16, 16, 512)       2359808   \n",
      "_________________________________________________________________\n",
      "batch_normalization_15 (Batc (None, 16, 16, 512)       2048      \n",
      "_________________________________________________________________\n",
      "activation_15 (Activation)   (None, 16, 16, 512)       0         \n",
      "_________________________________________________________________\n",
      "conv2d_16 (Conv2D)           (None, 16, 16, 512)       2359808   \n",
      "_________________________________________________________________\n",
      "batch_normalization_16 (Batc (None, 16, 16, 512)       2048      \n",
      "_________________________________________________________________\n",
      "activation_16 (Activation)   (None, 16, 16, 512)       0         \n",
      "_________________________________________________________________\n",
      "up_sampling2d_2 (UpSampling2 (None, 32, 32, 512)       0         \n",
      "_________________________________________________________________\n",
      "conv2d_17 (Conv2D)           (None, 32, 32, 512)       2359808   \n",
      "_________________________________________________________________\n",
      "batch_normalization_17 (Batc (None, 32, 32, 512)       2048      \n",
      "_________________________________________________________________\n",
      "activation_17 (Activation)   (None, 32, 32, 512)       0         \n",
      "_________________________________________________________________\n",
      "conv2d_18 (Conv2D)           (None, 32, 32, 512)       2359808   \n",
      "_________________________________________________________________\n",
      "batch_normalization_18 (Batc (None, 32, 32, 512)       2048      \n",
      "_________________________________________________________________\n",
      "activation_18 (Activation)   (None, 32, 32, 512)       0         \n",
      "_________________________________________________________________\n",
      "conv2d_19 (Conv2D)           (None, 32, 32, 256)       1179904   \n",
      "_________________________________________________________________\n"
     ]
    },
    {
     "name": "stdout",
     "output_type": "stream",
     "text": [
      "batch_normalization_19 (Batc (None, 32, 32, 256)       1024      \n",
      "_________________________________________________________________\n",
      "activation_19 (Activation)   (None, 32, 32, 256)       0         \n",
      "_________________________________________________________________\n",
      "up_sampling2d_3 (UpSampling2 (None, 64, 64, 256)       0         \n",
      "_________________________________________________________________\n",
      "conv2d_20 (Conv2D)           (None, 64, 64, 256)       590080    \n",
      "_________________________________________________________________\n",
      "batch_normalization_20 (Batc (None, 64, 64, 256)       1024      \n",
      "_________________________________________________________________\n",
      "activation_20 (Activation)   (None, 64, 64, 256)       0         \n",
      "_________________________________________________________________\n",
      "conv2d_21 (Conv2D)           (None, 64, 64, 256)       590080    \n",
      "_________________________________________________________________\n",
      "batch_normalization_21 (Batc (None, 64, 64, 256)       1024      \n",
      "_________________________________________________________________\n",
      "activation_21 (Activation)   (None, 64, 64, 256)       0         \n",
      "_________________________________________________________________\n",
      "conv2d_22 (Conv2D)           (None, 64, 64, 128)       295040    \n",
      "_________________________________________________________________\n",
      "batch_normalization_22 (Batc (None, 64, 64, 128)       512       \n",
      "_________________________________________________________________\n",
      "activation_22 (Activation)   (None, 64, 64, 128)       0         \n",
      "_________________________________________________________________\n",
      "up_sampling2d_4 (UpSampling2 (None, 128, 128, 128)     0         \n",
      "_________________________________________________________________\n",
      "conv2d_23 (Conv2D)           (None, 128, 128, 128)     147584    \n",
      "_________________________________________________________________\n",
      "batch_normalization_23 (Batc (None, 128, 128, 128)     512       \n",
      "_________________________________________________________________\n",
      "activation_23 (Activation)   (None, 128, 128, 128)     0         \n",
      "_________________________________________________________________\n",
      "conv2d_24 (Conv2D)           (None, 128, 128, 64)      73792     \n",
      "_________________________________________________________________\n",
      "batch_normalization_24 (Batc (None, 128, 128, 64)      256       \n",
      "_________________________________________________________________\n",
      "activation_24 (Activation)   (None, 128, 128, 64)      0         \n",
      "_________________________________________________________________\n",
      "up_sampling2d_5 (UpSampling2 (None, 256, 256, 64)      0         \n",
      "_________________________________________________________________\n",
      "conv2d_25 (Conv2D)           (None, 256, 256, 64)      36928     \n",
      "_________________________________________________________________\n",
      "batch_normalization_25 (Batc (None, 256, 256, 64)      256       \n",
      "_________________________________________________________________\n",
      "activation_25 (Activation)   (None, 256, 256, 64)      0         \n",
      "_________________________________________________________________\n",
      "conv2d_26 (Conv2D)           (None, 256, 256, 2)       130       \n",
      "_________________________________________________________________\n",
      "batch_normalization_26 (Batc (None, 256, 256, 2)       8         \n",
      "_________________________________________________________________\n",
      "reshape_1 (Reshape)          (None, 2, 65536)          0         \n",
      "_________________________________________________________________\n",
      "permute_1 (Permute)          (None, 65536, 2)          0         \n",
      "_________________________________________________________________\n",
      "activation_26 (Activation)   (None, 65536, 2)          0         \n",
      "=================================================================\n",
      "Total params: 29,459,018\n",
      "Trainable params: 29,443,142\n",
      "Non-trainable params: 15,876\n",
      "_________________________________________________________________\n"
     ]
    }